models/casita.tflite (tflite, 60944 bytes, 18 tensors)

tfl.pseudo_qconst1 i1 [1, 1088] scale=0.0023660648 zero_point=0
0.018928519 -0.23660648 -0.101740785 -0.05915162 0.075714074 -0.014196388 0.04495523 0.06388375
0.014196388 -0.19401732 0.075714074 -0.09700866 -0.023660649 -0.08991046 -0.011830324 -0.14906208
0.0047321296 0.014196388 -0.13959782 -0.06388375 -0.037857037 0.007098194 -0.04968736 0.0023660648
0.09937472 -0.080446206 -0.19874944 -0.021294583 -0.07098194 -0.047321297 -0.13013357 -0.068615876
-0.0047321296 0.03549097 0.011830324 0.11830324 -0.009464259 -0.094642594 -0.09700866 -0.056785554
-0.120669305 -0.18218699 -0.0023660648 -0.028392777 -0.12303537 0.0047321296 0.0 -0.08991046
0.04968736 -0.0875444 -0.021294583 -0.007098194 -0.0875444 -0.10410685 -0.19874944 -0.080446206
-0.15616028 -0.014196388 -0.0023660648 -0.007098194 0.0 -0.056785554 -0.09937472 -0.052053425
0.061517686 -0.14432995 -0.03549097 0.021294583 0.007098194 0.0 -0.04968736 0.1277675
0.056785554 -0.075714074 -0.014196388 -0.03312491 -0.1348657 -0.016562454 -0.11357111 0.014196388
-0.042589165 -0.16089241 -0.007098194 -0.068615876 -0.0875444 -0.04495523 -0.14196388 0.007098194
0.09700866 -0.10883898 -0.042589165 -0.052053425 -0.11593717 -0.061517686 0.0047321296 -0.037857037
0.014196388 0.09227653 0.014196388 0.047321297 -0.03549097 -0.061517686 0.009464259 -0.06388375
-0.11120505 -0.040223103 -0.040223103 -0.080446206 -0.023660649 0.03549097 -0.09937472 -0.06624982
0.011830324 0.014196388 -0.023660649 -0.014196388 -0.11830324 -0.07334801 -0.30049023 -0.17035666
-0.17982092 -0.06624982 -0.03312491 -0.068615876 -0.009464259 -0.011830324 -0.08517833 -0.14196388
0.05441949 -0.09227653 -0.056785554 -0.047321297 -0.0047321296 0.042589165 -0.12540144 -0.028392777
0.007098194 -0.06624982 0.0875444 -0.03312491 -0.15616028 0.021294583 0.0 -0.018928519
0.009464259 -0.021294583 -0.040223103 -0.05441949 -0.075714074 -0.030758843 -0.061517686 -0.08517833
-0.011830324 -0.028392777 -0.13723175 -0.04495523 0.047321297 0.03549097 0.016562454 -0.052053425
0.08281227 -0.0875444 -0.042589165 0.014196388 -0.14432995 -0.05441949 -0.03312491 -0.07334801
-0.07334801 -0.014196388 -0.021294583 0.014196388 -0.007098194 -0.03549097 -0.18691912 -0.09937472
-0.023660649 -0.08281227 -0.11593717 -0.0875444 -0.10647292 -0.11357111 -0.13723175 -0.08991046
-0.07334801 -0.042589165 -0.09227653 0.101740785 0.040223103 -0.021294583 -0.11593717 -0.021294583
-0.028392777 -0.05915162 -0.11357111 -0.07808014 0.05441949 0.06624982 -0.10410685 0.023660649
-0.07098194 -0.007098194 -0.0047321296 -0.07334801 -0.11120505 -0.075714074 -0.05441949 -0.08281227
-0.026026713 -0.007098194 -0.11593717 -0.09227653 -0.007098194 -0.04495523 -0.08517833 -0.07098194
0.0047321296 -0.03312491 -0.15142815 0.0047321296 0.009464259 -0.052053425 -0.09227653 -0.12540144
0.007098194 0.007098194 -0.009464259 0.023660649 -0.026026713 -0.11357111 0.026026713 0.0023660648
-0.09700866 0.06624982 -0.047321297 0.016562454 0.042589165 0.028392777 -0.018928519 -0.06624982
0.0047321296 -0.1348657 -0.042589165 -0.040223103 -0.12303537 -0.10883898 -0.14669602 -0.018928519
-0.120669305 -0.11120505 -0.120669305 0.021294583 0.028392777 0.05441949 -0.023660649 -0.09937472
00000000: 089c d5e7 20fa 131b 06ae 20d7 f6da fbc1
00000010: 0206 c5e5 f003 eb01 2ade acf7 e2ec c9e3
00000020: fe0f 0532 fcd8 d7e8 cdb3 fff4 cc02 00da
00000030: 15db f7fd dbd4 acde befa fffd 00e8 d6ea
00000040: 1ac3 f109 0300 eb36 18e0 faf2 c7f9 d006
00000050: eebc fde3 dbed c403 29d2 eeea cfe6 02f0
00000060: 0627 0614 f1e6 04e5 d1ef efde f60f d6e4
00000070: 0506 f6fa cee1 81b8 b4e4 f2e3 fcfb dcc4
00000080: 17d9 e8ec fe12 cbf4 03e4 25f2 be09 00f8
00000090: 04f7 efe9 e0f3 e6dc fbf4 c6ed 140f 07ea
000000a0: 23db ee06 c3e9 f2e1 e1fa f706 fdf1 b1d6
000000b0: f6dd cfdb d3d0 c6da e1ee d92b 11f7 cff7
000000c0: f4e7 d0df 171c d40a e2fd fee1 d1e0 e9dd
000000d0: f5fd cfd9 fded dce2 02f2 c002 04ea d9cb
000000e0: 0303 fc0a f5d0 0b01 d71c ec07 120c f8e4
000000f0: 02c7 eeef ccd2 c2f8 cdd1 cd09 0c17 f6d6

tfl.pseudo_qconst3 i1 [64, 1, 1, 64]
90 19 14 -127 -100 -39 -89 -93
-48 -23 17 -55 76 0 8 -63
62 -18 -20 -12 38 12 33 -12
59 -52 -58 -48 -6 -95 12 114
-84 -36 79 -23 -10 -44 29 -2
58 32 19 84 31 114 -62 -82
69 -103 -58 64 -36 -46 -50 -7
40 -3 115 38 9 11 -10 -55
-4 -27 -39 12 82 -39 -9 26
54 -56 -22 -43 -56 -13 -28 68
-16 -87 -43 25 38 7 -6 -41
-58 89 -5 25 -44 -43 14 47
22 102 -27 28 -51 -36 0 -87
-127 84 15 54 72 -16 -55 -59
76 55 35 50 -44 -59 14 34
11 14 50 96 -51 46 13 30
-72 -19 -12 -66 28 -13 -27 48
-69 -21 -95 -19 -18 33 37 -6
30 -20 -23 -43 28 -42 -47 86
64 -56 -8 -105 45 -29 -101 -2
30 -54 98 57 -43 -35 107 8
87 -32 -51 -9 8 -2 127 -17
-57 92 -109 21 59 69 98 -13
-93 36 9 -63 -1 -6 -42 -103
17 -97 76 -86 -47 -76 38 72
-46 -108 -4 98 -35 28 -79 33
79 -37 57 -13 10 -103 12 -35
127 -122 0 -16 67 -51 -3 39
42 55 -1 -8 -54 -105 9 16
38 -67 48 -82 7 19 71 -6
42 106 -81 37 55 -47 82 -7
-20 -63 62 -17 -110 1 -21 11
00000000: 5a13 0e81 9cd9 a7a3 d0e9 11c9 4c00 08c1
00000010: 3eee ecf4 260c 21f4 3bcc c6d0 faa1 0c72
00000020: acdc 4fe9 f6d4 1dfe 3a20 1354 1f72 c2ae
00000030: 4599 c640 dcd2 cef9 28fd 7326 090b f6c9
00000040: fce5 d90c 52d9 f71a 36c8 ead5 c8f3 e444
00000050: f0a9 d519 2607 fad7 c659 fb19 d4d5 0e2f
00000060: 1666 e51c cddc 00a9 8154 0f36 48f0 c9c5
00000070: 4c37 2332 d4c5 0e22 0b0e 3260 cd2e 0d1e
00000080: b8ed f4be 1cf3 e530 bbeb a1ed ee21 25fa
00000090: 1eec e9d5 1cd6 d156 40c8 f897 2de3 9bfe
000000a0: 1eca 6239 d5dd 6b08 57e0 cdf7 08fe 7fef
000000b0: c75c 9315 3b45 62f3 a324 09c1 fffa d699
000000c0: 119f 4caa d1b4 2648 d294 fc62 dd1c b121
000000d0: 4fdb 39f3 0a99 0cdd 7f86 00f0 43cd fd27
000000e0: 2a37 fff8 ca97 0910 26bd 30ae 0713 47fa
000000f0: 2a6a af25 37d1 52f9 ecc1 3eef 9201 eb0b

tfl.pseudo_qconst5 i1 [1, 23, 1, 64]
-48 24 127 -27 76 -74 42 14
126 -127 90 -120 -35 -51 123 -110
-54 -53 -97 -30 -90 62 -41 -19
100 0 58 61 27 -38 -50 32
58 104 -24 -36 15 40 42 -7
-41 9 -100 -53 -21 94 -18 126
127 67 1 85 -102 -92 106 -71
94 -60 60 -49 7 43 19 -38
-23 45 118 25 127 -100 -72 65
56 -102 127 -74 75 -81 -27 -88
-35 -62 -41 -6 -127 122 75 22
83 -23 -50 48 116 -48 -79 23
100 95 -100 -43 115 89 16 54
-107 -59 -42 -50 81 73 -20 124
117 50 15 127 -119 -127 6 -19
-46 -42 -27 29 27 -24 21 75
-40 86 82 37 92 0 -98 36
88 -35 59 -113 74 -57 67 -51
-82 -69 108 -32 -126 127 -29 28
99 4 -41 26 -3 -27 -96 46
22 32 -100 -16 1 37 -19 13
-102 -42 28 44 58 70 -24 75
82 61 2 64 -86 -124 66 20
-80 -57 -25 74 -47 105 19 104
-10 127 45 -15 -17 -24 -82 127
58 -45 42 -106 -38 -64 65 -127
-39 -13 73 20 -41 53 19 21
39 10 61 77 -57 -11 -89 -24
78 -67 -48 -13 -53 44 3 -5
-43 62 61 91 62 -59 -94 -112
21 0 95 21 15 -90 -35 76
5 -127 16 36 -37 59 -64 45
00000000: d018 7fe5 4cb6 2a0e 7e81 5a88 ddcd 7b92
00000010: cacb 9fe2 a63e d7ed 6400 3a3d 1bda ce20
00000020: 3a68 e8dc 0f28 2af9 d709 9ccb eb5e ee7e
00000030: 7f43 0155 9aa4 6ab9 5ec4 3ccf 072b 13da
00000040: e92d 7619 7f9c b841 389a 7fb6 4baf e5a8
00000050: ddc2 d7fa 817a 4b16 53e9 ce30 74d0 b117
00000060: 645f 9cd5 7359 1036 95c5 d6ce 5149 ec7c
00000070: 7532 0f7f 8981 06ed d2d6 e51d 1be8 154b
00000080: d856 5225 5c00 9e24 58dd 3b8f 4ac7 43cd
00000090: aebb 6ce0 827f e31c 6304 d71a fde5 a02e
000000a0: 1620 9cf0 0125 ed0d 9ad6 1c2c 3a46 e84b
000000b0: 523d 0240 aa84 4214 b0c7 e74a d169 1368
000000c0: f67f 2df1 efe8 ae7f 3ad3 2a96 dac0 4181
000000d0: d9f3 4914 d735 1315 270a 3d4d c7f5 a7e8
000000e0: 4ebd d0f3 cb2c 03fb d53e 3d5b 3ec5 a290
000000f0: 1500 5f15 0fa6 dd4c 0581 1024 db3b c02d

tfl.pseudo_qconst7 i1 [64, 1, 1, 64]
55 12 -56 45 -69 -33 19 -4
44 -40 -127 -28 -25 -86 -29 -22
7 -62 41 -25 36 -26 20 42
47 -10 71 -66 -37 42 -45 71
-59 -53 3 53 17 -51 -42 57
30 68 38 -58 23 11 -53 7
59 -74 -26 25 -46 -32 -77 -3
-27 86 -46 34 10 -32 61 -42
17 -36 75 4 -76 -41 -65 49
105 -47 -1 12 -44 -22 -66 -12
80 61 98 47 99 -35 7 24
10 -78 -12 -21 85 17 15 27
50 -80 7 31 -111 72 67 -96
65 46 67 -60 41 38 -74 97
46 51 -23 33 23 66 -3 -127
5 -5 -33 79 -58 -109 49 -102
-70 1 12 90 -24 87 23 21
-84 -27 -37 47 80 8 -12 -17
22 49 25 -35 -83 -6 -11 -3
49 10 13 -59 -51 71 -12 -12
-23 -46 28 12 -4 -56 20 -47
58 64 12 -45 -32 27 -16 9
31 -77 -36 127 33 -21 116 35
1 24 -6 -27 -15 -6 -33 -1
-64 -8 -61 12 40 -96 -50 76
55 -118 -15 -38 -1 -19 28 -1
6 4 12 1 -4 -5 -17 27
-19 28 64 22 -45 -46 19 52
-66 -67 33 -30 37 23 -48 2
32 5 -84 5 39 -55 26 48
-21 26 34 -44 -72 26 18 -36
79 -21 2 10 -37 -127 -106 -68
00000000: 370c c82d bbdf 13fc 2cd8 81e4 e7aa e3ea
00000010: 07c2 29e7 24e6 142a 2ff6 47be db2a d347
00000020: c5cb 0335 11cd d639 1e44 26c6 170b cb07
00000030: 3bb6 e619 d2e0 b3fd e556 d222 0ae0 3dd6
00000040: 11dc 4b04 b4d7 bf31 69d1 ff0c d4ea bef4
00000050: 503d 622f 63dd 0718 0ab2 f4eb 5511 0f1b
00000060: 32b0 071f 9148 43a0 412e 43c4 2926 b661
00000070: 2e33 e921 1742 fd81 05fb df4f c693 319a
00000080: ba01 0c5a e857 1715 ace5 db2f 5008 f4ef
00000090: 1631 19dd adfa f5fd 310a 0dc5 cd47 f4f4
000000a0: e9d2 1c0c fcc8 14d1 3a40 0cd3 e01b f009
000000b0: 1fb3 dc7f 21eb 7423 0118 fae5 f1fa dfff
000000c0: c0f8 c30c 28a0 ce4c 378a f1da ffed 1cff
000000d0: 0604 0c01 fcfb ef1b ed1c 4016 d3d2 1334
000000e0: bebd 21e2 2517 d002 2005 ac05 27c9 1a30
000000f0: eb1a 22d4 b81a 12dc 4feb 020a db81 96bc

tfl.pseudo_qconst9 i1 [1, 15, 1, 32]
-100 -127 -127 -75 -96 -120 -84 112
77 -50 -127 -83 -47 -57 120 -7
122 92 -46 44 102 12 73 114
-65 -115 3 -51 -36 43 -127 28
31 -62 -121 -63 56 -38 -127 127
42 -26 -102 -80 -60 -38 33 67
29 -47 14 63 2 -2 86 26
-23 -53 30 -54 67 10 -109 62
-49 -81 -34 81 40 15 -20 124
49 10 -86 -109 -15 35 63 -33
20 -20 1 -2 -40 114 10 23
38 73 -1 11 -55 48 -43 -28
63 -60 20 68 -58 96 25 22
-127 71 -34 -14 -19 72 -58 -30
127 21 127 -114 -4 35 95 -8
28 -1 -42 55 -69 36 13 -30
42 45 -88 32 -102 -9 -64 -56
-60 45 -25 -97 -127 97 -18 85
-29 -17 12 -96 -35 69 82 127
28 -22 -90 -7 -127 7 -61 9
40 -24 -59 72 75 -75 -38 -19
-79 -51 -34 25 -114 -24 -33 -23
-18 -91 -48 -127 -41 -7 112 -39
-5 32 -81 -10 -36 -9 -44 15
81 4 -72 76 -78 -45 -87 -35
16 -12 6 86 -84 30 -72 76
113 -96 -61 -40 -46 -68 127 -30
-41 68 -55 121 -15 -19 33 83
13 94 -119 -20 2 -8 51 -20
18 60 43 82 -38 -25 -60 0
-3 -52 45 0 -29 -61 74 -99
5 118 -20 127 -75 6 -45 45
00000000: 9c81 81b5 a088 ac70 4dce 81ad d1c7 78f9
00000010: 7a5c d22c 660c 4972 bf8d 03cd dc2b 811c
00000020: 1fc2 87c1 38da 817f 2ae6 9ab0 c4da 2143
00000030: 1dd1 0e3f 02fe 561a e9cb 1eca 430a 933e
00000040: cfaf de51 280f ec7c 310a aa93 f123 3fdf
00000050: 14ec 01fe d872 0a17 2649 ff0b c930 d5e4
00000060: 3fc4 1444 c660 1916 8147 def2 ed48 c6e2
00000070: 7f15 7f8e fc23 5ff8 1cff d637 bb24 0de2
00000080: 2a2d a820 9af7 c0c8 c42d e79f 8161 ee55
00000090: e3ef 0ca0 dd45 527f 1cea a6f9 8107 c309
000000a0: 28e8 c548 4bb5 daed b1cd de19 8ee8 dfe9
000000b0: eea5 d081 d7f9 70d9 fb20 aff6 dcf7 d40f
000000c0: 5104 b84c b2d3 a9dd 10f4 0656 ac1e b84c
000000d0: 71a0 c3d8 d2bc 7fe2 d744 c979 f1ed 2153
000000e0: 0d5e 89ec 02f8 33ec 123c 2b52 dae7 c400
000000f0: fdcc 2d00 e3c3 4a9d 0576 ec7f b506 d32d

tfl.pseudo_qconst11 i1 [1, 9, 1, 32]
90 13 -126 127 -60 -73 55 -109
-102 -21 -56 127 11 47 81 -127
-96 -34 -29 34 17 84 -104 -79
-3 -59 69 109 127 -60 90 -80
4 53 -127 -9 13 7 -127 21
-127 40 72 -23 119 -12 10 -90
-111 39 -69 106 -14 127 -88 78
28 -25 21 127 -53 -127 127 -41
76 -127 61 49 77 -25 14 -127
-74 12 34 102 -77 75 65 90
12 65 47 48 16 23 83 34
2 2 -85 115 30 -15 77 36
127 76 -79 -9 -29 -42 67 25
34 104 26 53 -97 68 57 81
-121 -24 -123 55 14 -53 -24 28
7 117 -86 -7 -5 -36 -56 95
-79 -107 -97 72 127 -55 38 -37
113 -14 48 -108 73 -27 89 -45
-75 -35 -88 -38 90 5 -48 -127
-75 45 127 21 49 2 -66 -49
-45 85 -64 -65 56 -127 55 112
9 23 22 -109 -49 -65 92 -102
-22 61 -97 54 27 -52 -103 -97
71 28 -54 -82 -41 -122 9 -105
99 -84 90 -94 96 -102 121 13
11 14 -38 64 -105 59 127 64
-53 -127 25 -54 41 74 70 17
104 -127 94 -78 14 4 -45 127
-56 35 94 4 -17 15 98 110
49 -87 -127 90 -98 105 86 22
-127 -8 127 -97 127 1 -11 52
84 -91 36 98 -34 -84 -84 -15
00000000: 5a0d 827f c4b7 3793 9aeb c87f 0b2f 5181
00000010: a0de e322 1154 98b1 fdc5 456d 7fc4 5ab0
00000020: 0435 81f7 0d07 8115 8128 48e9 77f4 0aa6
00000030: 9127 bb6a f27f a84e 1ce7 157f cb81 7fd7
00000040: 4c81 3d31 4de7 0e81 b60c 2266 b34b 415a
00000050: 0c41 2f30 1017 5322 0202 ab73 1ef1 4d24
00000060: 7f4c b1f7 e3d6 4319 2268 1a35 9f44 3951
00000070: 87e8 8537 0ecb e81c 0775 aaf9 fbdc c85f
00000080: b195 9f48 7fc9 26db 71f2 3094 49e5 59d3
00000090: b5dd a8da 5a05 d081 b52d 7f15 3102 becf
000000a0: d355 c0bf 3881 3770 0917 1693 cfbf 5c9a
000000b0: ea3d 9f36 1bcc 999f 471c caae d786 0997
000000c0: 63ac 5aa2 609a 790d 0b0e da40 973b 7f40
000000d0: cb81 19ca 294a 4611 6881 5eb2 0e04 d37f
000000e0: c823 5e04 ef0f 626e 31a9 815a 9e69 5616
000000f0: 81f8 7f9f 7f01 f534 54a5 2462 deac acf1

tfl.pseudo_qconst13 i1 [64, 1, 1, 64]
-58 67 71 -21 -59 13 1 -25
-123 -4 -53 62 -7 104 -79 -42
-71 -19 63 93 53 -19 -79 59
5 -34 79 -65 -9 4 26 68
-77 -107 73 78 41 47 3 -60
-83 -1 -119 0 -45 92 -111 -8
-50 47 -127 78 39 55 80 56
117 30 -68 -65 -76 -8 -68 49
-47 -127 45 39 78 -7 -104 -76
66 -42 -13 37 -2 19 15 37
88 -24 4 -16 -75 11 40 18
-59 -14 -31 -103 14 -70 69 -66
31 37 -39 58 26 10 -5 50
-20 -51 24 -67 74 44 74 42
-23 -47 -7 7 -99 -57 -42 48
-23 -42 49 37 101 43 96 -26
-55 52 16 -20 -7 -12 8 21
11 -26 60 -24 -58 11 79 -54
-86 9 9 46 26 -127 -2 -75
-11 -11 -77 -22 7 52 35 -99
-38 -2 2 4 55 89 44 10
37 -55 -23 -18 -34 -49 40 33
-78 -8 -53 -27 -65 -49 -52 -66
86 37 -52 -57 -40 1 50 -79
19 -94 71 -7 -104 22 -53 37
34 31 53 -33 -34 61 48 18
94 127 -41 30 -59 -27 -2 -49
43 28 -33 30 -55 103 2 6
-38 32 -48 26 19 -29 17 -123
76 -70 -70 -33 -10 18 101 -11
-76 34 62 100 -57 32 7 33
-47 48 -54 -15 47 -35 14 -89
00000000: c643 47eb c50d 01e7 85fc cb3e f968 b1d6
00000010: b9ed 3f5d 35ed b13b 05de 4fbf f704 1a44
00000020: b395 494e 292f 03c4 adff 8900 d35c 91f8
00000030: ce2f 814e 2737 5038 751e bcbf b4f8 bc31
00000040: d181 2d27 4ef9 98b4 42d6 f325 fe13 0f25
00000050: 58e8 04f0 b50b 2812 c5f2 e199 0eba 45be
00000060: 1f25 d93a 1a0a fb32 eccd 18bd 4a2c 4a2a
00000070: e9d1 f907 9dc7 d630 e9d6 3125 652b 60e6
00000080: c934 10ec f9f4 0815 0be6 3ce8 c60b 4fca
00000090: aa09 092e 1a81 feb5 f5f5 b3ea 0734 239d
000000a0: dafe 0204 3759 2c0a 25c9 e9ee decf 2821
000000b0: b2f8 cbe5 bfcf ccbe 5625 ccc7 d801 32b1
000000c0: 13a2 47f9 9816 cb25 221f 35df de3d 3012
000000d0: 5e7f d71e c5e5 fecf 2b1c df1e c967 0206
000000e0: da20 d01a 13e3 1185 4cba badf f612 65f5
000000f0: b422 3e64 c720 0721 d130 caf1 2fdd 0ea7

tfl.pseudo_qconst15 i1 [1, 11, 1, 32]
125 19 -62 35 91 88 -111 -71
-127 55 -14 -88 53 -45 53 4
123 98 51 -13 16 -111 35 -19
-127 -9 -5 -98 -12 8 -12 -28
-69 69 -36 -91 -127 -63 81 -49
-21 0 66 55 75 52 120 -127
-30 -24 57 9 39 79 26 11
-125 -55 -28 -118 30 -28 98 -82
68 -56 -127 -127 34 -78 -86 27
27 59 11 -31 101 -42 -17 0
6 -18 -12 -28 -51 38 12 55
-87 -127 -58 -88 66 53 8 -2
53 0 74 69 -46 40 43 47
70 127 72 10 98 -42 40 -40
-95 82 -13 -108 -3 3 46 48
15 -73 -37 -119 54 56 127 -71
61 -127 75 115 92 -15 25 -29
116 -14 53 -127 127 74 89 35
109 94 63 0 32 3 -89 67
19 -86 67 5 17 -8 -50 -120
39 -67 -70 33 -69 127 127 -127
114 -19 43 -83 112 -13 41 98
43 -10 -58 -43 9 -127 -25 -25
15 -37 -50 -125 -104 -96 88 -121
2 -114 -63 33 -57 101 35 -35
93 -57 111 -55 -21 -127 -39 39
77 1 -44 4 86 -84 -127 73
-32 -7 -68 -39 -62 99 8 -94
82 -74 -40 46 -24 -24 -55 -126
-48 -17 77 1 85 -89 -82 -27
-51 -110 20 -127 38 56 -41 -53
-31 -74 -59 125 -4 1 86 -7
00000000: 7d13 c223 5b58 91b9 8137 f2a8 35d3 3504
00000010: 7b62 33f3 1091 23ed 81f7 fb9e f408 f4e4
00000020: bb45 dca5 81c1 51cf eb00 4237 4b34 7881
00000030: e2e8 3909 274f 1a0b 83c9 e48a 1ee4 62ae
00000040: 44c8 8181 22b2 aa1b 1b3b 0be1 65d6 ef00
00000050: 06ee f4e4 cd26 0c37 a981 c6a8 4235 08fe
00000060: 3500 4a45 d228 2b2f 467f 480a 62d6 28d8
00000070: a152 f394 fd03 2e30 0fb7 db89 3638 7fb9
00000080: 3d81 4b73 5cf1 19e3 74f2 3581 7f4a 5923
00000090: 6d5e 3f00 2003 a743 13aa 4305 11f8 ce88
000000a0: 27bd ba21 bb7f 7f81 72ed 2bad 70f3 2962
000000b0: 2bf6 c6d5 0981 e7e7 0fdb ce83 98a0 5887
000000c0: 028e c121 c765 23dd 5dc7 6fc9 eb81 d927
000000d0: 4d01 d404 56ac 8149 e0f9 bcd9 c263 08a2
000000e0: 52b6 d82e e8e8 c982 d0ef 4d01 55a7 aee5
000000f0: cd92 1481 2638 d7cb e1b6 c57d fc01 56f9

tfl.pseudo_qconst17 i1 [1, 7, 1, 32]
78 -105 112 -55 -127 37 -4 104
107 -31 39 -8 8 -79 -127 -32
42 19 55 46 90 -26 -70 58
-44 -1 -51 -111 72 29 30 49
-78 -17 92 127 14 62 -127 -34
-63 -72 48 -92 105 -40 -122 127
-41 7 104 -39 -122 -5 44 -99
-55 -25 53 -67 127 97 -116 58
-127 -64 -82 42 -86 52 -84 -127
95 60 104 6 -44 -95 -5 -37
83 -96 -95 107 127 88 -107 108
-63 -78 96 -107 -94 117 127 -7
62 -127 -127 -48 67 118 -106 -36
-42 127 -26 27 -115 43 -29 -71
16 68 -127 -7 93 105 -10 123
8 -111 -42 -83 61 57 47 15
112 -22 -72 -127 -99 127 -98 -126
127 -57 -51 27 -127 118 -102 -64
-127 2 -112 -69 89 51 127 7
127 -127 11 -127 33 -86 -109 30
91 -45 -25 57 84 -32 26 -115
94 91 127 18 -65 -2 1 126
-99 127 4 -127 108 -93 34 127
124 -68 -15 58 -90 -127 126 3
-59 105 -33 -34 118 73 -11 74
35 40 36 127 44 -127 91 -18
19 -108 47 3 53 -127 73 127
93 -95 -127 -91 -75 26 -116 -127
00000000: 4e97 70c9 8125 fc68 6be1 27f8 08b1 81e0
00000010: 2a13 372e 5ae6 ba3a d4ff cd91 481d 1e31
00000020: b2ef 5c7f 0e3e 81de c1b8 30a4 69d8 867f
00000030: d707 68d9 86fb 2c9d c9e7 35bd 7f61 8c3a
00000040: 81c0 ae2a aa34 ac81 5f3c 6806 d4a1 fbdb
00000050: 53a0 a16b 7f58 956c c1b2 6095 a275 7ff9
00000060: 3e81 81d0 4376 96dc d67f e61b 8d2b e3b9
00000070: 1044 81f9 5d69 f67b 0891 d6ad 3d39 2f0f
00000080: 70ea b881 9d7f 9e82 7fc7 cd1b 8176 9ac0
00000090: 8102 90bb 5933 7f07 7f81 0b81 21aa 931e
000000a0: 5bd3 e739 54e0 1a8d 5e5b 7f12 bffe 017e
000000b0: 9d7f 0481 6ca3 227f 7cbc f13a a681 7e03
000000c0: c569 dfde 7649 f54a 2328 247f 2c81 5bee
000000d0: 1394 2f03 3581 497f 5da1 81a5 b51a 8c81

tfl.pseudo_qconst19 i1 [64, 1, 1, 32]
20 38 51 20 12 -79 16 22
26 -68 28 -9 -48 -89 -54 -78
-16 64 116 101 -36 3 13 108
76 11 -43 -61 79 -60 11 127
48 127 83 -50 -35 15 10 -46
-80 -22 13 37 -7 42 96 68
70 63 60 32 39 -47 -14 -62
-48 -107 -110 -61 -44 -25 35 -20
-46 -99 106 44 19 28 -77 -62
-52 -57 0 16 1 21 -92 108
90 93 -87 22 -57 -43 -6 -20
-58 42 124 77 -10 26 -38 127
127 -54 53 14 -4 -52 47 -91
-105 -103 -56 3 -84 44 -66 -27
-10 23 14 -106 7 20 45 -63
-35 -50 -24 -42 -26 -26 3 125
1 57 78 8 6 98 54 15
-9 76 -57 -82 8 -127 21 21
-28 -88 -49 45 27 84 -90 -70
-102 -51 -24 -76 80 53 5 51
-55 116 33 75 32 -24 59 20
102 -112 127 -20 36 12 49 -43
-73 -23 102 23 115 -50 -108 -53
43 -32 -102 -8 -116 29 97 30
-26 -77 -22 25 -13 12 21 37
68 21 9 -56 -6 22 4 15
28 32 -32 6 127 17 18 5
57 -56 3 -44 -8 -77 -44 26
47 19 -65 37 -31 -23 39 -34
8 -45 -56 -16 -21 -21 39 11
13 -31 127 44 97 35 74 -34
30 26 54 17 32 -35 10 -77
00000000: 1426 3314 0cb1 1016 1abc 1cf7 d0a7 cab2
00000010: f040 7465 dc03 0d6c 4c0b d5c3 4fc4 0b7f
00000020: 307f 53ce dd0f 0ad2 b0ea 0d25 f92a 6044
00000030: 463f 3c20 27d1 f2c2 d095 92c3 d4e7 23ec
00000040: d29d 6a2c 131c b3c2 ccc7 0010 0115 a46c
00000050: 5a5d a916 c7d5 faec c62a 7c4d f61a da7f
00000060: 7fca 350e fccc 2fa5 9799 c803 ac2c bee5
00000070: f617 0e96 0714 2dc1 ddce e8d6 e6e6 037d
00000080: 0139 4e08 0662 360f f74c c7ae 0881 1515
00000090: e4a8 cf2d 1b54 a6ba 9acd e8b4 5035 0533
000000a0: c974 214b 20e8 3b14 6690 7fec 240c 31d5
000000b0: b7e9 6617 73ce 94cb 2be0 9af8 8c1d 611e
000000c0: e6b3 ea19 f30c 1525 4415 09c8 fa16 040f
000000d0: 1c20 e006 7f11 1205 39c8 03d4 f8b3 d41a
000000e0: 2f13 bf25 e1e9 27de 08d3 c8f0 ebeb 270b
000000f0: 0de1 7f2c 6123 4ade 1e1a 3611 20dd 0ab3

tfl.pseudo_qconst21 i1 [1, 5, 1, 32]
24 -99 56 37 91 36 -85 -76
-78 96 -127 -51 -85 -55 -59 113
80 110 61 -43 127 6 -77 -105
10 -73 -94 86 47 -83 127 127
54 104 127 123 127 114 127 -49
-10 -127 59 65 -74 -41 -89 -64
-127 -89 0 82 62 -91 -68 -14
36 4 100 96 65 -110 47 -46
90 38 109 90 33 -73 22 -109
96 91 70 -118 -18 -117 1 -66
37 115 -66 78 -88 127 65 127
-127 96 127 -20 127 72 -117 5
-102 114 83 -10 91 -127 -49 20
127 -87 64 127 -127 -127 48 127
-100 -127 -60 29 48 -83 11 83
-51 127 -72 3 60 -54 -60 -94
127 -127 58 127 -28 64 -38 -127
-30 76 -69 -31 -3 -66 -127 87
24 -102 -127 -127 -64 -66 127 -13
58 115 -111 127 101 127 49 53
00000000: 189d 3825 5b24 abb4 b260 81cd abc9 c571
00000010: 506e 3dd5 7f06 b397 0ab7 a256 2fad 7f7f
00000020: 3668 7f7b 7f72 7fcf f681 3b41 b6d7 a7c0
00000030: 81a7 0052 3ea5 bcf2 2404 6460 4192 2fd2
00000040: 5a26 6d5a 21b7 1693 605b 468a ee8b 01be
00000050: 2573 be4e a87f 417f 8160 7fec 7f48 8b05
00000060: 9a72 53f6 5b81 cf14 7fa9 407f 8181 307f
00000070: 9c81 c41d 30ad 0b53 cd7f b803 3cca c4a2
00000080: 7f81 3a7f e440 da81 e24c bbe1 fdbe 8157
00000090: 189a 8181 c0be 7ff3 3a73 917f 657f 3135

tfl.pseudo_qconst23 i1 [32, 5, 1, 40]
-83 -51 -6 -1 0 38 45 5
18 36 34 5 -30 -6 3 31
65 22 -3 40 -24 16 -5 -38
0 -47 8 -61 -70 -14 -13 -22
-3 -45 -17 -127 23 -62 -23 -35
-74 -37 25 9 54 46 52 1
-3 30 -2 29 -6 -32 15 0
-2 37 41 17 -40 -24 2 20
-17 -44 -25 2 -17 -39 31 0
-2 -7 -28 -109 15 -35 39 -56
-68 28 -49 39 31 36 32 14
41 56 -1 8 -2 -36 37 11
39 43 24 72 21 59 -7 49
-30 -32 -23 26 44 -6 28 -26
-38 12 -5 -1 44 -11 8 -34
-53 -41 9 65 55 65 57 -8
-6 31 10 24 17 -46 18 51
47 4 39 73 18 12 75 2
-10 51 18 4 3 20 2 -27
0 -17 -23 13 -6 -24 28 4
-99 39 2 35 -5 39 7 58
-42 12 39 30 3 43 3 60
18 5 24 67 25 72 49 59
29 19 -13 6 24 35 19 -47
23 -11 -23 -17 -12 -48 25 7
53 21 13 55 30 16 38 35
-31 -17 37 -23 7 -1 55 17
-8 -51 -47 -7 -18 -31 -55 22
18 47 44 -33 -65 -35 -15 3
35 -17 24 -5 -66 -9 -36 -14
90 65 16 63 45 17 62 50
-35 -24 -30 22 5 7 28 -5
00000000: adcd faff 0026 2d05 1224 2205 e2fa 031f
00000010: 4116 fd28 e810 fbda 00d1 08c3 baf2 f3ea
00000020: fdd3 ef81 17c2 e9dd b6db 1909 362e 3401
00000030: fd1e fe1d fae0 0f00 fe25 2911 d8e8 0214
00000040: efd4 e702 efd9 1f00 fef9 e493 0fdd 27c8
00000050: bc1c cf27 1f24 200e 2938 ff08 fedc 250b
00000060: 272b 1848 153b f931 e2e0 e91a 2cfa 1ce6
00000070: da0c fbff 2cf5 08de cbd7 0941 3741 39f8
00000080: fa1f 0a18 11d2 1233 2f04 2749 120c 4b02
00000090: f633 1204 0314 02e5 00ef e90d fae8 1c04
000000a0: 9d27 0223 fb27 073a d60c 271e 032b 033c
000000b0: 1205 1843 1948 313b 1d13 f306 1823 13d1
000000c0: 17f5 e9ef f4d0 1907 3515 0d37 1e10 2623
000000d0: e1ef 25e9 07ff 3711 f8cd d1f9 eee1 c916
000000e0: 122f 2cdf bfdd f103 23ef 18fb bef7 dcf2
000000f0: 5a41 103f 2d11 3e32 dde8 e216 0507 1cfb

tfl.pseudo_qconst24 i1 [1, 22, 1, 64] scale=0.031665668 zero_point=-128
0.0 0.0 0.0 0.0 0.0 0.0 0.0 0.0
0.0 0.0 0.0 0.0 0.0 0.0 0.0 0.0
0.0 0.0 0.0 0.0 0.0 0.0 0.0 0.0
0.0 0.0 0.0 0.0 0.0 0.0 0.0 0.0
0.0 0.0 0.0 0.0 0.0 0.0 0.0 0.0
0.0 0.0 0.0 0.0 0.0 0.0 0.0 0.0
0.0 0.0 0.0 0.0 0.0 0.0 0.0 0.0
0.0 0.0 0.0 0.0 0.0 0.0 0.0 0.0
0.0 0.0 0.0 0.0 0.0 0.0 0.0 0.0
0.0 0.0 0.0 0.0 0.0 0.0 0.0 0.0
0.0 0.0 0.0 0.0 0.0 0.0 0.0 0.0
0.0 0.0 0.0 0.0 0.0 0.0 0.0 0.0
0.0 0.0 0.0 0.0 0.0 0.0 0.0 0.0
0.0 0.0 0.0 0.0 0.0 0.0 0.0 0.0
0.0 0.0 0.0 0.0 0.0 0.0 0.0 0.0
0.0 0.0 0.0 0.0 0.0 0.0 0.0 0.0
0.0 0.0 0.0 0.0 0.0 0.0 0.0 0.0
0.0 0.0 0.0 0.0 0.0 0.0 0.0 0.0
0.0 0.0 0.0 0.0 0.0 0.0 0.0 0.0
0.0 0.0 0.0 0.0 0.0 0.0 0.0 0.0
0.0 0.0 0.0 0.0 0.0 0.0 0.0 0.0
0.0 0.0 0.0 0.0 0.0 0.0 0.0 0.0
0.0 0.0 0.0 0.0 0.0 0.0 0.0 0.0
0.0 0.0 0.0 0.0 0.0 0.0 0.0 0.0
0.0 0.0 0.0 0.0 0.0 0.0 0.0 0.0
0.0 0.0 0.0 0.0 0.0 0.0 0.0 0.0
0.0 0.0 0.0 0.0 0.0 0.0 0.0 0.0
0.0 0.0 0.0 0.0 0.0 0.0 0.0 0.0
0.0 0.0 0.0 0.0 0.0 0.0 0.0 0.0
0.0 0.0 0.0 0.0 0.0 0.0 0.0 0.0
0.0 0.0 0.0 0.0 0.0 0.0 0.0 0.0
0.0 0.0 0.0 0.0 0.0 0.0 0.0 0.0
00000000: 8080 8080 8080 8080 8080 8080 8080 8080
00000010: 8080 8080 8080 8080 8080 8080 8080 8080
00000020: 8080 8080 8080 8080 8080 8080 8080 8080
00000030: 8080 8080 8080 8080 8080 8080 8080 8080
00000040: 8080 8080 8080 8080 8080 8080 8080 8080
00000050: 8080 8080 8080 8080 8080 8080 8080 8080
00000060: 8080 8080 8080 8080 8080 8080 8080 8080
00000070: 8080 8080 8080 8080 8080 8080 8080 8080
00000080: 8080 8080 8080 8080 8080 8080 8080 8080
00000090: 8080 8080 8080 8080 8080 8080 8080 8080
000000a0: 8080 8080 8080 8080 8080 8080 8080 8080
000000b0: 8080 8080 8080 8080 8080 8080 8080 8080
000000c0: 8080 8080 8080 8080 8080 8080 8080 8080
000000d0: 8080 8080 8080 8080 8080 8080 8080 8080
000000e0: 8080 8080 8080 8080 8080 8080 8080 8080
000000f0: 8080 8080 8080 8080 8080 8080 8080 8080

tfl.pseudo_qconst25 i1 [1, 16, 1, 64] scale=0.028404085 zero_point=-128
0.0 0.0 0.0 0.0 0.0 0.0 0.0 0.0
0.0 0.0 0.0 0.0 0.0 0.0 0.0 0.0
0.0 0.0 0.0 0.0 0.0 0.0 0.0 0.0
0.0 0.0 0.0 0.0 0.0 0.0 0.0 0.0
0.0 0.0 0.0 0.0 0.0 0.0 0.0 0.0
0.0 0.0 0.0 0.0 0.0 0.0 0.0 0.0
0.0 0.0 0.0 0.0 0.0 0.0 0.0 0.0
0.0 0.0 0.0 0.0 0.0 0.0 0.0 0.0
0.0 0.0 0.0 0.0 0.0 0.0 0.0 0.0
0.0 0.0 0.0 0.0 0.0 0.0 0.0 0.0
0.0 0.0 0.0 0.0 0.0 0.0 0.0 0.0
0.0 0.0 0.0 0.0 0.0 0.0 0.0 0.0
0.0 0.0 0.0 0.0 0.0 0.0 0.0 0.0
0.0 0.0 0.0 0.0 0.0 0.0 0.0 0.0
0.0 0.0 0.0 0.0 0.0 0.0 0.0 0.0
0.0 0.0 0.0 0.0 0.0 0.0 0.0 0.0
0.0 0.0 0.0 0.0 0.0 0.0 0.0 0.0
0.0 0.0 0.0 0.0 0.0 0.0 0.0 0.0
0.0 0.0 0.0 0.0 0.0 0.0 0.0 0.0
0.0 0.0 0.0 0.0 0.0 0.0 0.0 0.0
0.0 0.0 0.0 0.0 0.0 0.0 0.0 0.0
0.0 0.0 0.0 0.0 0.0 0.0 0.0 0.0
0.0 0.0 0.0 0.0 0.0 0.0 0.0 0.0
0.0 0.0 0.0 0.0 0.0 0.0 0.0 0.0
0.0 0.0 0.0 0.0 0.0 0.0 0.0 0.0
0.0 0.0 0.0 0.0 0.0 0.0 0.0 0.0
0.0 0.0 0.0 0.0 0.0 0.0 0.0 0.0
0.0 0.0 0.0 0.0 0.0 0.0 0.0 0.0
0.0 0.0 0.0 0.0 0.0 0.0 0.0 0.0
0.0 0.0 0.0 0.0 0.0 0.0 0.0 0.0
0.0 0.0 0.0 0.0 0.0 0.0 0.0 0.0
0.0 0.0 0.0 0.0 0.0 0.0 0.0 0.0
00000000: 8080 8080 8080 8080 8080 8080 8080 8080
00000010: 8080 8080 8080 8080 8080 8080 8080 8080
00000020: 8080 8080 8080 8080 8080 8080 8080 8080
00000030: 8080 8080 8080 8080 8080 8080 8080 8080
00000040: 8080 8080 8080 8080 8080 8080 8080 8080
00000050: 8080 8080 8080 8080 8080 8080 8080 8080
00000060: 8080 8080 8080 8080 8080 8080 8080 8080
00000070: 8080 8080 8080 8080 8080 8080 8080 8080
00000080: 8080 8080 8080 8080 8080 8080 8080 8080
00000090: 8080 8080 8080 8080 8080 8080 8080 8080
000000a0: 8080 8080 8080 8080 8080 8080 8080 8080
000000b0: 8080 8080 8080 8080 8080 8080 8080 8080
000000c0: 8080 8080 8080 8080 8080 8080 8080 8080
000000d0: 8080 8080 8080 8080 8080 8080 8080 8080
000000e0: 8080 8080 8080 8080 8080 8080 8080 8080
000000f0: 8080 8080 8080 8080 8080 8080 8080 8080

tfl.pseudo_qconst26 i1 [1, 2, 1, 40] scale=0.101960786 zero_point=-128
0.0 0.0 0.0 0.0 0.0 0.0 0.0 0.0
0.0 0.0 0.0 0.0 0.0 0.0 0.0 0.0
0.0 0.0 0.0 0.0 0.0 0.0 0.0 0.0
0.0 0.0 0.0 0.0 0.0 0.0 0.0 0.0
0.0 0.0 0.0 0.0 0.0 0.0 0.0 0.0
0.0 0.0 0.0 0.0 0.0 0.0 0.0 0.0
0.0 0.0 0.0 0.0 0.0 0.0 0.0 0.0
0.0 0.0 0.0 0.0 0.0 0.0 0.0 0.0
0.0 0.0 0.0 0.0 0.0 0.0 0.0 0.0
0.0 0.0 0.0 0.0 0.0 0.0 0.0 0.0
00000000: 8080 8080 8080 8080 8080 8080 8080 8080
00000010: 8080 8080 8080 8080 8080 8080 8080 8080
00000020: 8080 8080 8080 8080 8080 8080 8080 8080
00000030: 8080 8080 8080 8080 8080 8080 8080 8080
00000040: 8080 8080 8080 8080 8080 8080 8080 8080

tfl.pseudo_qconst27 i1 [1, 4, 1, 32] scale=0.589074 zero_point=-128
0.0 0.0 0.0 0.0 0.0 0.0 0.0 0.0
0.0 0.0 0.0 0.0 0.0 0.0 0.0 0.0
0.0 0.0 0.0 0.0 0.0 0.0 0.0 0.0
0.0 0.0 0.0 0.0 0.0 0.0 0.0 0.0
0.0 0.0 0.0 0.0 0.0 0.0 0.0 0.0
0.0 0.0 0.0 0.0 0.0 0.0 0.0 0.0
0.0 0.0 0.0 0.0 0.0 0.0 0.0 0.0
0.0 0.0 0.0 0.0 0.0 0.0 0.0 0.0
0.0 0.0 0.0 0.0 0.0 0.0 0.0 0.0
0.0 0.0 0.0 0.0 0.0 0.0 0.0 0.0
0.0 0.0 0.0 0.0 0.0 0.0 0.0 0.0
0.0 0.0 0.0 0.0 0.0 0.0 0.0 0.0
0.0 0.0 0.0 0.0 0.0 0.0 0.0 0.0
0.0 0.0 0.0 0.0 0.0 0.0 0.0 0.0
0.0 0.0 0.0 0.0 0.0 0.0 0.0 0.0
0.0 0.0 0.0 0.0 0.0 0.0 0.0 0.0
00000000: 8080 8080 8080 8080 8080 8080 8080 8080
00000010: 8080 8080 8080 8080 8080 8080 8080 8080
00000020: 8080 8080 8080 8080 8080 8080 8080 8080
00000030: 8080 8080 8080 8080 8080 8080 8080 8080
00000040: 8080 8080 8080 8080 8080 8080 8080 8080
00000050: 8080 8080 8080 8080 8080 8080 8080 8080
00000060: 8080 8080 8080 8080 8080 8080 8080 8080
00000070: 8080 8080 8080 8080 8080 8080 8080 8080

tfl.pseudo_qconst28 i1 [1, 10, 1, 64] scale=0.037237767 zero_point=-128
0.0 0.0 0.0 0.0 0.0 0.0 0.0 0.0
0.0 0.0 0.0 0.0 0.0 0.0 0.0 0.0
0.0 0.0 0.0 0.0 0.0 0.0 0.0 0.0
0.0 0.0 0.0 0.0 0.0 0.0 0.0 0.0
0.0 0.0 0.0 0.0 0.0 0.0 0.0 0.0
0.0 0.0 0.0 0.0 0.0 0.0 0.0 0.0
0.0 0.0 0.0 0.0 0.0 0.0 0.0 0.0
0.0 0.0 0.0 0.0 0.0 0.0 0.0 0.0
0.0 0.0 0.0 0.0 0.0 0.0 0.0 0.0
0.0 0.0 0.0 0.0 0.0 0.0 0.0 0.0
0.0 0.0 0.0 0.0 0.0 0.0 0.0 0.0
0.0 0.0 0.0 0.0 0.0 0.0 0.0 0.0
0.0 0.0 0.0 0.0 0.0 0.0 0.0 0.0
0.0 0.0 0.0 0.0 0.0 0.0 0.0 0.0
0.0 0.0 0.0 0.0 0.0 0.0 0.0 0.0
0.0 0.0 0.0 0.0 0.0 0.0 0.0 0.0
0.0 0.0 0.0 0.0 0.0 0.0 0.0 0.0
0.0 0.0 0.0 0.0 0.0 0.0 0.0 0.0
0.0 0.0 0.0 0.0 0.0 0.0 0.0 0.0
0.0 0.0 0.0 0.0 0.0 0.0 0.0 0.0
0.0 0.0 0.0 0.0 0.0 0.0 0.0 0.0
0.0 0.0 0.0 0.0 0.0 0.0 0.0 0.0
0.0 0.0 0.0 0.0 0.0 0.0 0.0 0.0
0.0 0.0 0.0 0.0 0.0 0.0 0.0 0.0
0.0 0.0 0.0 0.0 0.0 0.0 0.0 0.0
0.0 0.0 0.0 0.0 0.0 0.0 0.0 0.0
0.0 0.0 0.0 0.0 0.0 0.0 0.0 0.0
0.0 0.0 0.0 0.0 0.0 0.0 0.0 0.0
0.0 0.0 0.0 0.0 0.0 0.0 0.0 0.0
0.0 0.0 0.0 0.0 0.0 0.0 0.0 0.0
0.0 0.0 0.0 0.0 0.0 0.0 0.0 0.0
0.0 0.0 0.0 0.0 0.0 0.0 0.0 0.0
00000000: 8080 8080 8080 8080 8080 8080 8080 8080
00000010: 8080 8080 8080 8080 8080 8080 8080 8080
00000020: 8080 8080 8080 8080 8080 8080 8080 8080
00000030: 8080 8080 8080 8080 8080 8080 8080 8080
00000040: 8080 8080 8080 8080 8080 8080 8080 8080
00000050: 8080 8080 8080 8080 8080 8080 8080 8080
00000060: 8080 8080 8080 8080 8080 8080 8080 8080
00000070: 8080 8080 8080 8080 8080 8080 8080 8080
00000080: 8080 8080 8080 8080 8080 8080 8080 8080
00000090: 8080 8080 8080 8080 8080 8080 8080 8080
000000a0: 8080 8080 8080 8080 8080 8080 8080 8080
000000b0: 8080 8080 8080 8080 8080 8080 8080 8080
000000c0: 8080 8080 8080 8080 8080 8080 8080 8080
000000d0: 8080 8080 8080 8080 8080 8080 8080 8080
000000e0: 8080 8080 8080 8080 8080 8080 8080 8080
000000f0: 8080 8080 8080 8080 8080 8080 8080 8080

tfl.pseudo_qconst29 i1 [1, 14, 1, 64] scale=0.04332991 zero_point=-128
0.0 0.0 0.0 0.0 0.0 0.0 0.0 0.0
0.0 0.0 0.0 0.0 0.0 0.0 0.0 0.0
0.0 0.0 0.0 0.0 0.0 0.0 0.0 0.0
0.0 0.0 0.0 0.0 0.0 0.0 0.0 0.0
0.0 0.0 0.0 0.0 0.0 0.0 0.0 0.0
0.0 0.0 0.0 0.0 0.0 0.0 0.0 0.0
0.0 0.0 0.0 0.0 0.0 0.0 0.0 0.0
0.0 0.0 0.0 0.0 0.0 0.0 0.0 0.0
0.0 0.0 0.0 0.0 0.0 0.0 0.0 0.0
0.0 0.0 0.0 0.0 0.0 0.0 0.0 0.0
0.0 0.0 0.0 0.0 0.0 0.0 0.0 0.0
0.0 0.0 0.0 0.0 0.0 0.0 0.0 0.0
0.0 0.0 0.0 0.0 0.0 0.0 0.0 0.0
0.0 0.0 0.0 0.0 0.0 0.0 0.0 0.0
0.0 0.0 0.0 0.0 0.0 0.0 0.0 0.0
0.0 0.0 0.0 0.0 0.0 0.0 0.0 0.0
0.0 0.0 0.0 0.0 0.0 0.0 0.0 0.0
0.0 0.0 0.0 0.0 0.0 0.0 0.0 0.0
0.0 0.0 0.0 0.0 0.0 0.0 0.0 0.0
0.0 0.0 0.0 0.0 0.0 0.0 0.0 0.0
0.0 0.0 0.0 0.0 0.0 0.0 0.0 0.0
0.0 0.0 0.0 0.0 0.0 0.0 0.0 0.0
0.0 0.0 0.0 0.0 0.0 0.0 0.0 0.0
0.0 0.0 0.0 0.0 0.0 0.0 0.0 0.0
0.0 0.0 0.0 0.0 0.0 0.0 0.0 0.0
0.0 0.0 0.0 0.0 0.0 0.0 0.0 0.0
0.0 0.0 0.0 0.0 0.0 0.0 0.0 0.0
0.0 0.0 0.0 0.0 0.0 0.0 0.0 0.0
0.0 0.0 0.0 0.0 0.0 0.0 0.0 0.0
0.0 0.0 0.0 0.0 0.0 0.0 0.0 0.0
0.0 0.0 0.0 0.0 0.0 0.0 0.0 0.0
0.0 0.0 0.0 0.0 0.0 0.0 0.0 0.0
00000000: 8080 8080 8080 8080 8080 8080 8080 8080
00000010: 8080 8080 8080 8080 8080 8080 8080 8080
00000020: 8080 8080 8080 8080 8080 8080 8080 8080
00000030: 8080 8080 8080 8080 8080 8080 8080 8080
00000040: 8080 8080 8080 8080 8080 8080 8080 8080
00000050: 8080 8080 8080 8080 8080 8080 8080 8080
00000060: 8080 8080 8080 8080 8080 8080 8080 8080
00000070: 8080 8080 8080 8080 8080 8080 8080 8080
00000080: 8080 8080 8080 8080 8080 8080 8080 8080
00000090: 8080 8080 8080 8080 8080 8080 8080 8080
000000a0: 8080 8080 8080 8080 8080 8080 8080 8080
000000b0: 8080 8080 8080 8080 8080 8080 8080 8080
000000c0: 8080 8080 8080 8080 8080 8080 8080 8080
000000d0: 8080 8080 8080 8080 8080 8080 8080 8080
000000e0: 8080 8080 8080 8080 8080 8080 8080 8080
000000f0: 8080 8080 8080 8080 8080 8080 8080 8080
